…
Loading array:  311 / 325
Loading array:  312 / 325
Loading array:  313 / 325
Loading array:  314 / 325
Loading array:  315 / 325
Loading array:  316 / 325
Loading array:  317 / 325
Loading array:  318 / 325
Loading array:  319 / 325
Loading array:  320 / 325
Loading array:  321 / 325
Loading array:  322 / 325
Loading array:  323 / 325
Loading array:  324 / 325
Loading array:  325 / 325
----------------------------------------------------------------
        Layer (type)               Output Shape         Param #
================================================================
            Conv2d-1         [-1, 64, 128, 128]           1,664
            Conv2d-2         [-1, 64, 128, 128]         102,464
            Conv2d-3          [-1, 1, 128, 128]           1,601
            Conv2d-4           [-1, 64, 64, 64]           1,664
            Conv2d-5           [-1, 64, 64, 64]         102,464
            Conv2d-6            [-1, 1, 64, 64]           1,601
            Conv2d-7           [-1, 64, 32, 32]           1,664
            Conv2d-8           [-1, 64, 32, 32]         102,464
            Conv2d-9            [-1, 1, 32, 32]           1,601
           Conv2d-10           [-1, 64, 16, 16]           1,664
           Conv2d-11           [-1, 64, 16, 16]         102,464
           Conv2d-12            [-1, 1, 16, 16]           1,601
           Conv2d-13         [-1, 64, 128, 128]           8,064
           Conv2d-14         [-1, 64, 128, 128]         102,464
           Conv2d-15         [-1, 64, 128, 128]         102,464
           Conv2d-16           [-1, 64, 64, 64]         102,464
           Conv2d-17           [-1, 64, 64, 64]         102,464
           Conv2d-18           [-1, 64, 64, 64]         102,464
           Conv2d-19           [-1, 64, 32, 32]         102,464
           Conv2d-20           [-1, 32, 32, 32]          51,232
           Conv2d-21            [-1, 4, 32, 32]           3,204
           Linear-22                  [-1, 128]         131,200
           Linear-23                   [-1, 10]           1,290
           Linear-24                   [-1, 10]           1,290
           Conv2d-25         [-1, 64, 128, 128]           6,976
           Conv2d-26         [-1, 64, 128, 128]          36,928
           Conv2d-27         [-1, 64, 128, 128]          36,928
           Conv2d-28         [-1, 64, 128, 128]          36,928
           Conv2d-29          [-1, 1, 128, 128]              65
spatial_broadcast_decoder-30          [-1, 1, 128, 128]               0
================================================================
Total params: 1,351,805
Trainable params: 1,351,805
Non-trainable params: 0
----------------------------------------------------------------
Input size (MB): 0.06
Forward/backward pass size (MB): 84.45
Params size (MB): 5.16
Estimated Total Size (MB): 89.67
----------------------------------------------------------------
/home/qrgciliagen/anaconda3/lib/python3.7/site-packages/torch/nn/functional.py:2416: UserWarning: nn.functional.upsample is deprecated. Use nn.functional.interpolate instead.
…
